best-model_audio.pth (torch_old, 81810 bytes, 6 tensors)

0.conv.weight f4 [100, 13, 5]
0	0xbe330f8a	-0.17486396
1	0xbd88744b	-0.06662806
2	0xbd284c9b	-0.04108868
3	0x3d092038	0.03347799
4	0x3b82954f	0.003985084
5	0xbe0b7f50	-0.13622785
6	0xbe5bc355	-0.21461232
7	0xbd0b97a3	-0.03408016
8	0x3db85cbe	0.09002064
9	0x3d93632f	0.07196652
10	0xbdbc457b	-0.0919294
11	0xbd4d90b0	-0.050186813
12	0x3d63cc38	0.05561468
13	0x3db6fb64	0.08934668
14	0xbdc40b0e	-0.09572421
15	0x3d4a2f85	0.049361724
16	0xbd5c68e8	-0.053810984
17	0x3d659b7f	0.056056496
18	0xbd062a5a	-0.032755233
19	0xbd0a05bc	-0.033696875
20	0xbd81634a	-0.06317766
21	0xbdb5dcca	-0.08880003
22	0xbddbdf74	-0.1073598
23	0xbd268475	-0.040653665
24	0x3d321cf9	0.04348466
25	0x3d20565b	0.039144855
26	0xbce41d9f	-0.027846156
27	0xbb3708bb	-0.0027928788
28	0x3d354531	0.04425544
29	0xbdafaa9b	-0.08577462
30	0x3c6695ac	0.0140737705
31	0xbd9d2ec3	-0.07674935
32	0xbbea608b	-0.007152622
33	0xbd8c9327	-0.068640046
34	0xbbe83246	-0.007086071
35	0xbcfd5b0c	-0.030927204
36	0xbcdfd436	-0.02732287
37	0xbde83343	-0.113379024
38	0x3d078b1c	0.03309165
39	0xbdbb67bf	-0.09150647
40	0x3cde6a06	0.027150165
41	0xbc475c5e	-0.012168018
42	0x3dc009b7	0.09376853
43	0xbcad6aa9	-0.021169024
44	0xbe0f49f0	-0.13993049
45	0x3d568754	0.052375153
46	0x3cb3a82e	0.02193078
47	0xbd7470cb	-0.05967788
48	0x3d166d6c	0.036725447
49	0x3d685416	0.056720816
50	0x3c818549	0.015810626
51	0x3c77c0c0	0.015121639
52	0xbcb18faf	-0.021674959
53	0xbc60566e	-0.013692481
54	0x3d51d581	0.051229004
55	0x3d29c0ef	0.04144376
56	0xbca16941	-0.01970351
57	0xbcb621d6	-0.022232931
58	0x3d5b4de3	0.053541075
59	0x3d893a3c	0.067005605
60	0x3d347313	0.044055056
61	0x3da73551	0.08164466
62	0xbc6a0d68	-0.014285423
63	0xbe0f21ff	-0.13977812
64	0xba082af5	-0.00051943894
65	0xbdade68e	-0.084912404
66	0x3cc848b6	0.024448734
67	0xbd2a8688	-0.041632205
68	0xbdc31f99	-0.09527511
69	0xbd270298	-0.040773958
70	0xbe29ae3f	-0.16570376
71	0xbdd6a598	-0.10480803
72	0xbe22ccce	-0.1589844
73	0x3caee364	0.021348663
74	0x3bf28128	0.0074006505
75	0xbdf58c53	-0.11989655
76	0xbdc6e49e	-0.09711574
77	0xbcc3178e	-0.023814943
78	0x3d2119a6	0.0393311
79	0xbe067fa5	-0.1313463
80	0xbe35592a	-0.17709795
81	0xbd868995	-0.065692104
82	0xbde0e0a1	-0.109803446
83	0xbca5d74d	-0.020244265
84	0xbe17d1ab	-0.14826076
85	0xbc432af3	-0.011912095
86	0xbc7df5f2	-0.015500532
87	0xbe0d6edb	-0.1381182
88	0xbd9fcac6	-0.07802348
89	0xbc216472	-0.009850608
90	0xbd7682a9	-0.0601832
91	0xbd9b3320	-0.07578111
92	0xbdef5d92	-0.11687769
93	0xbd939205	-0.072055854
94	0x3cfcfda5	0.030882666
95	0xbd2055ed	-0.039144445
96	0xbd28ebd2	-0.04124052
97	0xbccf6763	-0.025317853
98	0x3c875b79	0.01652311
99	0xbd5b4515	-0.05353268
100	0x3c8c13ca	0.01709928
101	0xbd89f601	-0.06736375
102	0xbda3fecd	-0.08007584
103	0xbd982087	-0.07428079
104	0x3d5f298e	0.05448299
105	0x3ce56486	0.028002035
106	0xbcb0e7b2	-0.021594856
107	0x3c2956b6	0.010335615
108	0x3ce7931e	0.028268393
109	0xbda2b416	-0.07944505
110	0xbc7d8977	-0.015474669
111	0xbcc4f632	-0.024043176
112	0x3c1dfd62	0.009642931
113	0x3c9fc818	0.019504592
114	0x3e17a6a1	0.14809658
115	0x3dbb3f29	0.09142906
116	0xbc9bb602	-0.019007687
117	0xbd42f818	-0.047599882
118	0x3d2e8265	0.042604823
119	0xbbe576d4	-0.007002691
120	0xbdf50e7b	-0.119656526
121	0x3cf6b81d	0.030117089
122	0x3d96ad42	0.07357265
123	0xbd773df2	-0.06036181
124	0x3d189878	0.03725478
125	0x3dc12059	0.09429998
126	0xbc8c17fd	-0.017101282
127	0xbdcc48c8	-0.099748194
128	0x3bff4669	0.007790376
129	0xbce58053	-0.028015291
130	0x3d2bee9f	0.041975614
131	0x3915a51a	0.00014271252
132	0xbd220caf	-0.039562877
133	0xbdd4ebea	-0.103965595
134	0xbd066b2b	-0.032817047
135	0x3c846d43	0.016165381
136	0x3d30f1a9	0.043199215
137	0xbd5f44b3	-0.054508876
138	0x3d1af41b	0.037830453
139	0x3e067436	0.13130268
140	0xbd83dd3e	-0.06438683
141	0x3de9e449	0.11420495
142	0x3cc002f6	0.023438912
143	0xbd7d462b	-0.061834496
144	0x3c848c57	0.0161802
145	0xbdbec33f	-0.09314584
146	0xbcff81c6	-0.03118981
147	0x3d9cdf14	0.07659736
148	0xbd1d43d0	-0.03839475
149	0xbe323dbf	-0.17406367
150	0xbdd81f18	-0.10552806
151	0x3cd272b7	0.025689466
152	0x3d31415d	0.043275226
153	0x3d9d8fd5	0.076934494
154	0xbd925b79	-0.07146353
155	0x3d3e396c	0.04644148
156	0x3c1407ad	0.009035033
157	0x3cc8b2de	0.024499353
158	0x3dbb88c1	0.09156943
159	0x3db2fb2d	0.08739314
160	0x3c9bbe32	0.01901159
161	0x3d064dcd	0.03278904
162	0x3dcb75bf	0.09934568
163	0x3ba84fcf	0.005136467
164	0xbd8e43d0	-0.06946528
165	0x3d55dbf0	0.052211702
166	0x3c1c54dd	0.009541717
167	0xbdb76f37	-0.089567594
168	0x3c060a2b	0.008181135
169	0x3d8b3e7a	0.06799026
170	0x3d82d9bf	0.06389188
171	0xbd95888a	-0.073014334
172	0x3de430d4	0.11142126
173	0x3d709d02	0.058743484
174	0x3d208d20	0.039197087
175	0x3e3c46a5	0.18386324
176	0x3ce7cb52	0.028295193
177	0xba6e566c	-0.00090918574
178	0xbd9c54ff	-0.07633399
179	0x3be6d77c	0.0070447307
180	0x3a2066ea	0.0006118851
181	0x3e10744b	0.14106862
182	0x3cbcb8b8	0.0230373
183	0x3e0e168c	0.13875788
184	0x3d6acb3f	0.057322737
185	0x3d4951bc	0.049150214
186	0x3db3cf59	0.08779783
187	0xbe02c89b	-0.12771837
188	0x3c98172a	0.018565733
189	0xbd66a871	-0.056312982
190	0x3c06012f	0.008178993
191	0xbd9bb7df	-0.0760343
192	0x3ce26b82	0.027639154
193	0xbc933029	-0.0179673
194	0x3de0b5e6	0.109721944
195	0x3ddd0f0c	0.107938856
196	0xbc02bc75	-0.007979502
197	0xbd5cf6bd	-0.053946245
198	0xbd8d4f15	-0.06899849
199	0x3db5d3a2	0.088782564
200	0xbd84186b	-0.0644997
201	0x3c34956c	0.011021953
202	0xbe05c7d4	-0.1306451
203	0x3c626a1c	0.013819244
204	0xbd107753	-0.035270046
205	0xbb9c1a76	-0.0047638966
206	0x3cf765c4	0.030199893
207	0x3cac5b23	0.021039551
208	0xbdd25fdd	-0.10272191
209	0xbd5b43a0	-0.05353129
210	0xbd733d99	-0.059384916
211	0xbdece351	-0.11566795
212	0xbd890fb1	-0.06692446
213	0xbabfdf34	-0.0014638663
214	0xbda5c32d	-0.080938675
215	0xbdb7f3da	-0.08982058
216	0xbd20eca4	-0.039288178
217	0x3c2d4138	0.010574631
218	0xbdbcdbf4	-0.0922164
219	0xbde20333	-0.110357665
220	0x3d260299	0.04052982
221	0xbc1981dd	-0.009369341
222	0x3dabc507	0.08387189
223	0x3d1209f7	0.035654034
224	0xbd787d50	-0.060666382
225	0xbce59c5b	-0.028028658
226	0xbc2f1031	-0.010685013
227	0x3e130303	0.14356618
228	0xbcb50623	-0.022097653
229	0xbdc48400	-0.095954895
230	0x3d238e83	0.03993083
231	0xbd51fc5b	-0.051266056
232	0xbd3855cf	-0.04500371
233	0x3e13c54b	0.1443073
234	0x3da1a03b	0.0789189
235	0xbdfe6452	-0.12421478
236	0x3d7eba7d	0.062189568
237	0xbc85cf70	-0.016334265
238	0x3d89d3bf	0.067298405
239	0xbdff9c85	-0.124810256
240	0xbcf09881	-0.029369595
241	0xbd79b35b	-0.060962062
242	0xbce759df	-0.028241096
243	0xbdb9fda6	-0.09081583
244	0xbcb273c8	-0.021783724
245	0x3c70dbc4	0.014700834
246	0xbcc0cf3b	-0.023536315
247	0xbd504be2	-0.050853617
248	0xbd89de94	-0.067319065
249	0xbe1fb972	-0.15598086
250	0x3d708b00	0.05872631
251	0xbdc80af5	-0.09767715
252	0x3d54dcd8	0.051968426
253	0x3dab13f2	0.08353414
254	0xbd8ac23b	-0.06775328
255	0x3d346b94	0.044047907

0.conv.bias f4 [100]
0	0xbf01ca0e	-0.50698936
1	0xbebd1729	-0.36931732
2	0xbeb008d3	-0.34381732
3	0xbef6cd6c	-0.482036
4	0xbf0dc366	-0.5537628
5	0xbebdb9af	-0.37055728
6	0xbdcf006d	-0.10107503
7	0xbe2e7927	-0.17038403
8	0xbeb3a017	-0.35083076
9	0xbf28658e	-0.6577996
10	0xbf1335cb	-0.57503957
11	0xbee34d0f	-0.4439473
12	0xbee6885c	-0.4502591
13	0xbf05fdf8	-0.5234065
14	0xbefb67d4	-0.49102652
15	0xbdc35e71	-0.09539498
16	0xbf0a348c	-0.5398643
17	0xbe02b2a3	-0.12763457
18	0xbed7b041	-0.4212666
19	0xbeb87a6d	-0.36030903
20	0xbf2022de	-0.62553203
21	0xbefb694b	-0.4910377
22	0xbf1070f3	-0.56422347
23	0xbf113e61	-0.5673581
24	0xbefd4b4e	-0.49471515
25	0xbee2c90b	-0.4429401
26	0xbed924e2	-0.42410952
27	0xbf03b78b	-0.5145194
28	0xbf059cae	-0.521922
29	0xbf230ff8	-0.6369624
30	0xbee75a78	-0.4518621
31	0xbea80c8e	-0.32822078
32	0xbf1996c4	-0.59995675
33	0xbefc88bf	-0.4932308
34	0xbe131c66	-0.14366302
35	0xbeeb6263	-0.459735
36	0xbdcbb079	-0.09945769
37	0xbf0924a1	-0.53571516
38	0xbe95f8c6	-0.29291362
39	0xbf0bb850	-0.54578114
40	0xbed6aa7b	-0.4192694
41	0xbeda3dc1	-0.4262524
42	0xbebbeacf	-0.36702582
43	0xbf0e1dd8	-0.5551429
44	0xbf1c01e7	-0.609404
45	0xbf01f0e8	-0.5075822
46	0xbf0b5af8	-0.5443568
47	0xbeacece5	-0.33774486
48	0xbf1afeee	-0.6054524
49	0xbef1e9b7	-0.47248623
50	0xbf088fc9	-0.533444
51	0xbf0799e7	-0.5296921
52	0xbee1b104	-0.44080365
53	0xbefcec5a	-0.49399072
54	0xbebcea0b	-0.3689731
55	0xbf1d937f	-0.61553186
56	0xbf0794a1	-0.52961165
57	0xbe3713e1	-0.17878677
58	0xbf1d6356	-0.614797
59	0xbf16524d	-0.5871933
60	0xbf2c7fed	-0.673827
61	0xbef75199	-0.48304442
62	0xbf052328	-0.5200677
63	0xbf130784	-0.5743334
64	0xbf034ee9	-0.5129228
65	0xbedb4fd4	-0.42834342
66	0xbe975b8a	-0.29562026
67	0xbf15d1a4	-0.5852301
68	0xbf0b7bd1	-0.54485804
69	0xbf116de2	-0.5680829
70	0xbf011cd3	-0.5043461
71	0xbeba9746	-0.36443537
72	0xbf047ac3	-0.5174982
73	0xbde31a3c	-0.11088988
74	0xbef4a8ec	-0.47785127
75	0xbf0b3dc5	-0.5439113
76	0xbe906384	-0.28200924
77	0xbf104730	-0.56358624
78	0xbebbd0b0	-0.36682653
79	0xbee9394d	-0.4555153
80	0xbea92c47	-0.33041593
81	0xbeb06179	-0.34449366
82	0xbf1711b5	-0.59011394
83	0xbf06b704	-0.5262301
84	0xbe522674	-0.20522481
85	0xbe15f32a	-0.14643541
86	0xbef284ab	-0.47366843
87	0xbf1f0b50	-0.62126637
88	0xbdb4768c	-0.088116735
89	0xbec2b428	-0.38028073
90	0xbe4e9b5c	-0.20176452
91	0xbef5521f	-0.47914216
92	0xbec446ac	-0.38335168
93	0xbf0219d9	-0.5082069
94	0xbf03240c	-0.5122688
95	0xbf2342e8	-0.63773966
96	0xbedca6d2	-0.43096024
97	0xbf110d90	-0.5666132
98	0xbf103ae9	-0.5633989
99	0xbe0e6dc7	-0.13909064

0.fc.weight f4 [128, 100]
0	0x3ded4e21	0.115871675
1	0x3dd60f92	0.104521886
2	0xbe40b5eb	-0.18819396
3	0x3df658fe	0.12028693
4	0x3c9961cc	0.018723391
5	0x3d1e3f9d	0.038634885
6	0x3da61e99	0.08111305
7	0xbdf7d69e	-0.12101482
8	0x3d9891d7	0.07449692
9	0xbde358b5	-0.11100904
10	0xbd085ce9	-0.03329173
11	0xbda2cd85	-0.07949356
12	0xbe421eef	-0.18957113
13	0xbe892299	-0.26784208
14	0x3cfd205e	0.030899223
15	0xbd799fdd	-0.060943473
16	0x3dd7fc36	0.10546152
17	0x3cad7328	0.021173075
18	0x3df69d7b	0.12041756
19	0xbd826bde	-0.0636823
20	0xbe20c0bd	-0.15698524
21	0xbe4d7df4	-0.20067579
22	0xbd0fdc30	-0.035122097
23	0xbcac4193	-0.021027362
24	0x3d9dbaa3	0.07701614
25	0xbd48864a	-0.048956193
26	0xbdccb56c	-0.09995541
27	0xbce08ae2	-0.027409974
28	0xbe055341	-0.1302004
29	0xbe4db4d8	-0.20088518
30	0x3dda2ee2	0.106534734
31	0xbc9442d2	-0.018098269
32	0x3dbb4da2	0.09145667
33	0x3d83f2f2	0.064428225
34	0xbe118070	-0.14209151
35	0xbe92348a	-0.2855571
36	0xbcba4762	-0.022739116
37	0xbe4ec9f9	-0.20194234
38	0x3cf0945e	0.029367622
39	0xbe327cb9	-0.1743039
40	0xbd33cd40	-0.043896914
41	0x3d103be8	0.03521338
42	0xbdec2290	-0.1153003
43	0xbdf4e4d4	-0.11957708
44	0xbccff259	-0.025384115
45	0xbe1f78bb	-0.15573399
46	0xbcc4fe3b	-0.024047008
47	0x3d99dddd	0.0751302
48	0xbe8991bc	-0.26869
49	0xbe41e27a	-0.1893405
50	0xbce5f8ac	-0.028072678
51	0x3de4d9a3	0.111743234
52	0x3db4e86c	0.088333935
53	0x3df5003b	0.119629346
54	0xbd89e8ed	-0.0673388
55	0xbdc04b29	-0.09389336
56	0xbe7ddb58	-0.24790704
57	0xbd5eb0b3	-0.054367732
58	0xbe400642	-0.18752387
59	0xbe883f24	-0.26610672
60	0xbd90668d	-0.0705081
61	0x3cf323f9	0.029680239
62	0x3d49b39b	0.04924355
63	0x3ceb2dbc	0.028708331
64	0x3d0d21b3	0.034455966
65	0xbdb6b4fb	-0.08921238
66	0xbe46e4e3	-0.19423251
67	0xbe49ecd9	-0.19719256
68	0xbde3791b	-0.111070834
69	0x3df7fe2d	0.12109027
70	0xbe58ec4c	-0.2118389
71	0x3dbb59dd	0.091479994
72	0xbd030211	-0.031984393
73	0xbd7fa3d3	-0.062412094
74	0xbd3a9281	-0.045549873
75	0xbde944f9	-0.113901086
76	0xbde30d4a	-0.11086519
77	0x3d9ede6f	0.077572696
78	0xbd87679f	-0.06611561
79	0x3e202c84	0.15641981
80	0xbddf37f4	-0.10899344
81	0xbde78065	-0.11303786
82	0xbe3b01bf	-0.18262385
83	0x3d7d1ce9	0.06179515
84	0xbe0f7edb	-0.14013235
85	0x3d1151f5	0.03547855
86	0xbd9885c5	-0.074473895
87	0xbd898ba6	-0.06716089
88	0xbcb5b0d4	-0.022179045
89	0xbdd8aca1	-0.10579801
90	0xbcaf0b2e	-0.021367636
91	0x3d262968	0.04056683
92	0x3da0b84b	0.07847651
93	0xbe342ce6	-0.17595252
94	0x3d9b482a	0.075821236
95	0xbe3cf402	-0.18452457
96	0xbe858539	-0.26078203
97	0xbdde55ed	-0.10856233
98	0x3b29800a	0.002586367
99	0xbd8f35a5	-0.06992654
100	0xbda7d3a2	-0.08194663
101	0xbd0e427c	-0.034731373
102	0x3c42949a	0.01187625
103	0xbca2b24e	-0.019860413
104	0xbd233a4f	-0.03985053
105	0x3d1c9cc5	0.038235445
106	0x3c8d8043	0.017273074
107	0xbe177036	-0.14788899
108	0xbcd42ede	-0.025901254
109	0x3b06a498	0.0020544883
110	0x3d3e47c5	0.046455164
111	0x3d3fd5f8	0.046834916
112	0x3d377b31	0.04479522
113	0x3c903369	0.01760264
114	0x3d6f9fe5	0.058502097
115	0xbd687469	-0.056751642
116	0x3d35358e	0.044240527
117	0x3b37a525	0.0028022018
118	0xbd255656	-0.04036554
119	0x3cd70bc1	0.026250722
120	0xbdfcae90	-0.12337983
121	0xbd1a8a9c	-0.037729844
122	0x3d821b6b	0.06352886
123	0xbd793bad	-0.060847927
124	0xbcbe13c4	-0.023202784
125	0xbdb61a0d	-0.088916875
126	0xbc4c7ac0	-0.012480438
127	0xbd1d4f31	-0.0384056
128	0x3d0d0d6b	0.034436624
129	0x3c1ce562	0.0095761735
130	0x3d9458ba	0.07243486
131	0xbd7962c9	-0.060885224
132	0xbd49142d	-0.049091507
133	0xbd4a4c5d	-0.049389232
134	0xbd0c714c	-0.034287736
135	0x3d5a5ef7	0.05331322
136	0xbd72235d	-0.059115756
137	0xbd942eb5	-0.07235471
138	0x3d4e7d74	0.05041261
139	0xbd9cf45d	-0.07663796
140	0x3b547ccf	0.0032423025
141	0xbe0ed4ed	-0.13948412
142	0x3d4077e4	0.046989337
143	0xbe4d63bb	-0.20057575
144	0x3dc96623	0.09833934
145	0xbc172251	-0.00922449
146	0x3d076497	0.033054914
147	0xbd2cd875	-0.042198617
148	0xbe4a8ce9	-0.19780315
149	0x3bb8f0f6	0.005643959
150	0xbd751320	-0.059832692
151	0xbba2deb5	-0.0049703964
152	0xbd812b75	-0.06307117
153	0xbc367134	-0.011135388
154	0xbd45dcfc	-0.04830645
155	0xbda69a39	-0.081348844
156	0xbb093a60	-0.0020939335
157	0x3cafbabf	0.021451352
158	0x3d61faf0	0.055170953
159	0x3d549835	0.05190297
160	0x3bcc0639	0.0062263277
161	0xbd776b6e	-0.060405187
162	0xbd867bd0	-0.06566584
163	0x3e055cfc	0.13023752
164	0xbdddeb31	-0.10835875
165	0xbd100e5b	-0.03516994
166	0xbdcdb254	-0.10043779
167	0x3cb4124d	0.021981383
168	0x3ccb5da3	0.024824923
169	0x3c87343d	0.016504401
170	0xbcdcb798	-0.026943013
171	0xbe060f98	-0.13091886
172	0xbd15ff2f	-0.036620315
173	0x3ac591f1	0.0015073401
174	0x3c6f042c	0.014588397
175	0xbe024cd7	-0.12724625
176	0xbd464532	-0.048405834
177	0x3d8d7139	0.06906361
178	0xbe28904d	-0.16461296
179	0xbdb76672	-0.08955087
180	0xbd973cfb	-0.07384678
181	0xbc80cdc1	-0.015723111
182	0x3c2f06c5	0.010682766
183	0x3d90fefa	0.07079883
184	0xbdd0261b	-0.10163518
185	0x3cd7270c	0.026263736
186	0xbe0cef34	-0.13763124
187	0xbdb524db	-0.0884492
188	0xbe30510b	-0.17218415
189	0xbdb15cfd	-0.08660314
190	0xbd58ac20	-0.052898526
191	0xbdfa9923	-0.1223624
192	0xbddb96f5	-0.10722152
193	0xbc9152ad	-0.017739618
194	0x3d477d65	0.04870357
195	0x3cc4de69	0.024031835
196	0xbe06dbcb	-0.13169782
197	0x3bbca83c	0.00575736
198	0xbcf22e92	-0.029563222
199	0xbd9ec1e6	-0.07751827
200	0x3d8bca3d	0.06825683
201	0x3d89b532	0.067240134
202	0x3d0d972d	0.034568
203	0x3d3398a7	0.043846752
204	0x3caf0e92	0.021369252
205	0xbc27bacc	-0.010237407
206	0x3cd785e2	0.026308957
207	0x3c972f13	0.018455064
208	0x3db6b6de	0.08921598
209	0xbe23ca00	-0.15995026
210	0xbd37dd67	-0.04488888
211	0xbd6165ab	-0.0550286
212	0xbddb83de	-0.10718511
213	0x3ddd28ca	0.107987955
214	0x3c9569f8	0.018239006
215	0x3d661eda	0.056181766
216	0x3d44fbd3	0.04809172
217	0xbd1961d1	-0.0374468
218	0xbd3e7f6a	-0.04650823
219	0xbdbb2fd0	-0.09139979
220	0xbce3fb4a	-0.027829785
221	0xbdb6502e	-0.08902012
222	0x3d7cb164	0.06169261
223	0xbd77e47c	-0.060520634
224	0x3d8f5f7c	0.07000634
225	0xbba33190	-0.0049802735
226	0xbd7ab2c1	-0.06120563
227	0x3ce011fd	0.027352327
228	0xbe1c71e6	-0.15277824
229	0xbe259f09	-0.16173948
230	0x3caca0bb	0.021072736
231	0x3e1267c4	0.14297396
232	0x3dce8130	0.10083234
233	0x3d96cb64	0.073630124
234	0x3d10280f	0.035194453
235	0xbe6893c1	-0.22712614
236	0x3e3a57cf	0.18197559
237	0xbd8833fb	-0.066505395
238	0x3dfd121c	0.1235697
239	0xbe013807	-0.12619029
240	0xbdaa2440	-0.083076954
241	0xbda22ae3	-0.07918336
242	0xbccc596f	-0.024944989
243	0x3bcd7203	0.006269695
244	0xbd512771	-0.051063005
245	0xbe494bda	-0.19657841
246	0xbe0e2952	-0.1388295
247	0xbbf02628	-0.0073287673
248	0xbdeaa99b	-0.11458131
249	0xbd3e8b79	-0.04651973
250	0x3d6a993c	0.057275042
251	0x3dbb3a6e	0.09142004
252	0xbc02f745	-0.007993524
253	0xbd1c0ccd	-0.038098145
254	0x3dba8f96	0.09109418
255	0xbd652fdb	-0.05595384

0.fc.bias f4 [128]
0	0x3dd54a82	0.10414602
1	0xbe17c0ce	-0.14819643
2	0x3e7c8cbd	0.24663062
3	0xbed6e1af	-0.41969058
4	0x3ce73ab7	0.02822624
5	0x3e556c69	0.20842136
6	0x3e809f31	0.25121453
7	0xbf0590d4	-0.52174115
8	0xbeca2ccd	-0.39487305
9	0x3e9709a7	0.29499552
10	0x3e46bc3f	0.19407748
11	0x3e9a0a52	0.30086
12	0x3ebeb5d4	0.372481
13	0x3e406e48	0.18792069
14	0x3d829f42	0.06378032
15	0x3d6abd5b	0.05730949
16	0xbf0ea9ae	-0.5572766
17	0x3e3888f7	0.18020998
18	0x3dd9573d	0.106123425
19	0x3e5cdb36	0.21567997
20	0xbf0032ba	-0.500774
21	0x3df7250c	0.12067613
22	0xbdea27be	-0.114333615
23	0xbf03a9cb	-0.5143096
24	0xbf100116	-0.56251657
25	0x3dc81f9d	0.09771655
26	0xbf19c61a	-0.60067904
27	0xbe27d0b3	-0.16388206
28	0xbf03f3bf	-0.515438
29	0x3eaedeae	0.34154266
30	0x3e084bca	0.13310161
31	0xbdb20c9a	-0.0869381
32	0x3e1ecbe5	0.15507467
33	0xbe5834d0	-0.21113896
34	0xbab89916	-0.0014083709
35	0x3dc5b4a2	0.096535936
36	0xbe2d8b20	-0.16947603
37	0xbec197f6	-0.3781125
38	0xbdfc606b	-0.12323078
39	0x3d933532	0.071878806
40	0xbe90f976	-0.28315324
41	0x3e9cf8bb	0.30658516
42	0xbe3e07c5	-0.18557651
43	0x3e41a761	0.18911506
44	0xbc9af3c5	-0.018915066
45	0x3e3c5747	0.18392669
46	0xbecfa8d7	-0.40558502
47	0x3ea2067c	0.31645572
48	0x3e453ee1	0.19262268
49	0x3e19e6ba	0.15029421
50	0xbb96971e	-0.0045956513
51	0x3e411219	0.1885456
52	0x3e0474b9	0.12935151
53	0x3e14d61f	0.14534806
54	0x3e79730e	0.24360296
55	0x3d47ab10	0.048747122
56	0xbee64ab1	-0.4497886
57	0x3d5c4b19	0.053782556
58	0xbd106aa7	-0.03525796
59	0x3ac3e673	0.0014945999
60	0x3e67419c	0.22583622
61	0x3d9fc08b	0.078003965
62	0x3e4f8548	0.20265687
63	0x3d478741	0.048712973
64	0x3e70d173	0.23517399
65	0xba5af29a	-0.00083521905
66	0xbd1139e5	-0.035455603
67	0xbd7d0fd8	-0.061782688
68	0xbf114235	-0.5674165
69	0x3dff4140	0.12463617
70	0xbf10ecf5	-0.5661157
71	0xbe9cb054	-0.30603278
72	0xbee14f74	-0.4400593
73	0xbd66f7fd	-0.056388844
74	0xbe72a8ee	-0.23697254
75	0x3e91b8cb	0.28461298
76	0x3cc4f96d	0.024044717
77	0x3e6376e9	0.2221333
78	0x3e4f5362	0.20246652
79	0x3e9bc88d	0.30426446
80	0xbe457950	-0.19284558
81	0xbe95a099	-0.2922409
82	0xbea832ee	-0.32851356
83	0xbdefed6d	-0.11715207
84	0xbc35ac6f	-0.011088475
85	0xbbdfefe6	-0.006834018
86	0xbe90aeb7	-0.28258297
87	0x3d26c0f6	0.040711366
88	0xbeaa6db9	-0.33286837
89	0xbe935ed5	-0.2878329
90	0xbe84babe	-0.25923723
91	0xbd9a3597	-0.07529753
92	0x3dabc935	0.083879866
93	0xbe1074fc	-0.14107126
94	0xbe0208f6	-0.12698731
95	0x3e2afbf2	0.16697672
96	0x3d8a68da	0.0675828
97	0xbec58d66	-0.3858444
98	0x3ea17b0e	0.31539196
99	0x3da0766b	0.078350864
100	0x3e9dd251	0.3082452
101	0xbeb9e3a1	-0.3630648
102	0xbf154a00	-0.5831604
103	0xbe1a708f	-0.15082
104	0xbee173a7	-0.44033548
105	0xbce548aa	-0.02798875
106	0xbe09cdd4	-0.13457423
107	0xbdc263b1	-0.09491671
108	0x3de2ffd8	0.110839546
109	0x3d6b884d	0.057503033
110	0xbdbf4e65	-0.093411244
111	0x3d2f628f	0.042818602
112	0xbf0c50e0	-0.54810905
113	0xbd980363	-0.07422521
114	0x3e7338eb	0.23752181
115	0x3e6ca7da	0.23110905
116	0x3dd0d6be	0.10197209
117	0x3e6cb2e1	0.23115112
118	0xbe5b2dca	-0.21404186
119	0xbedd035f	-0.43166634
120	0xbedfe625	-0.43730274
121	0xbd122286	-0.035677455
122	0xbebd7a53	-0.37007388
123	0x3e38b50f	0.18037818
124	0x3e803122	0.25037485
125	0xbdafddca	-0.08587225
126	0xbe256b01	-0.161541
127	0x3e9bb5f8	0.3041227

3.weight f4 [5, 128]
0	0x3d6dfbc9	0.05810145
1	0x3d401603	0.046895992
2	0xbcdb37e4	-0.02676005
3	0x3d2bc760	0.041938186
4	0xbd913162	-0.07089497
5	0x3ddb0401	0.10694123
6	0x3cb7092b	0.022343239
7	0x3cb5c926	0.022190642
8	0xbc5f48b6	-0.0136281755
9	0x3dc2c8bd	0.09510944
10	0xbc0eb0b4	-0.0087091215
11	0xbd33c031	-0.04388446
12	0xbdfbed69	-0.12301142
13	0x3d499d18	0.049222082
14	0xbdc68fce	-0.09695397
15	0xbdae0144	-0.08496335
16	0xbd843005	-0.064544715
17	0xbe011c1b	-0.12608378
18	0x3de53d3c	0.1119332
19	0xbd05dec7	-0.03268316
20	0xbd1e6857	-0.038673725
21	0xbd6f1445	-0.05836894
22	0x3c7f052b	0.015565197
23	0xbcdef488	-0.027216211
24	0xbd33af99	-0.043868635
25	0x3b4b4471	0.0031016136
26	0x3c13fab3	0.009031939
27	0xbbfa35a0	-0.007635787
28	0x3d180b2d	0.037120033
29	0xbd945a9c	-0.07243845
30	0x3cef5e0d	0.029219652
31	0xbccc0e7e	-0.024909254
32	0x3ab56946	0.0013840578
33	0xbd4d3edb	-0.05010877
34	0xbd3876a1	-0.04503501
35	0x3e103803	0.14083867
36	0x3d7e22aa	0.062044777
37	0xbc9cd809	-0.019145982
38	0xbbbf745e	-0.0058427295
39	0xbc4c4f1e	-0.012470035
40	0xbcebcf58	-0.028785393
41	0x3bc4029b	0.005981756
42	0x3d9810ce	0.0742508
43	0x3cd5f72f	0.026118843
44	0xbde304e1	-0.11084915
45	0xbcb94f88	-0.022620931
46	0x3d0401d8	0.03222832
47	0x3ddce925	0.10786656
48	0x3d22e96e	0.039773397
49	0xbd3089f1	-0.0431003
50	0x3c765e9e	0.015037207
51	0x3d2cc73e	0.0421822
52	0xbd5f3542	-0.05449415
53	0xbc4ac6f0	-0.012376532
54	0xbde371eb	-0.111057125
55	0xbdfa9ce1	-0.122369535
56	0xbc9d35ee	-0.019190755
57	0xbc56debb	-0.0131146265
58	0xbd2eba90	-0.04265839
59	0xbcf283dc	-0.029603891
60	0xbd87c83f	-0.06629991
61	0xbda116a7	-0.07865649
62	0xbdeb77bb	-0.11497446
63	0x3cc88902	0.024479393
64	0xbbb18cb6	-0.0054183854
65	0xbd89a9d7	-0.067218475
66	0xbd5174ea	-0.05113689
67	0xbd3274eb	-0.043568533
68	0xbc657000	-0.014003754
69	0xbdb62c57	-0.08895176
70	0xbd7f7ca7	-0.062374737
71	0x3d69b0b4	0.057053283
72	0xbc8b5efa	-0.017013062
73	0xbd363e4d	-0.04449301
74	0xbc56e76b	-0.013116698
75	0xbd7e5440	-0.062092066
76	0xbd502d61	-0.050824527
77	0xbb0ee60c	-0.00218046
78	0xbd775dd2	-0.06039221
79	0xbe07c180	-0.13257408
80	0xbc74504e	-0.014911724
81	0xbd3b38d0	-0.045708477
82	0x3c69cbd2	0.014269786
83	0xbd555c6a	-0.052090086
84	0x3db21653	0.08695664
85	0xbdae60b4	-0.085145384
86	0xbdef78f9	-0.116929956
87	0xbddc5c11	-0.10759748
88	0x3bc383ce	0.00596664
89	0xbb6207f5	-0.0034489606
90	0xbc936bc0	-0.017995715
91	0xbcf27ba8	-0.02959998
92	0xbdb8cbc1	-0.09023238
93	0xbdd7d676	-0.10538952
94	0xbc73e906	-0.0148871
95	0x3d0f479b	0.034980398
96	0x3d90c402	0.070686355
97	0xbd8b78b3	-0.06810131
98	0xbd988f59	-0.074492164
99	0x3d50d1b1	0.050981227
100	0xbc3cba38	-0.011519007
101	0x3b8ffba0	0.0043940097
102	0xbd952070	-0.072815776
103	0xbc9f3254	-0.019433178
104	0x3ce6dd95	0.02818183
105	0xbd891d66	-0.066950604
106	0x3d37ba70	0.044855535
107	0x3d9759e0	0.07390189
108	0xbdb508bb	-0.08839556
109	0x3cdea2cf	0.027177243
110	0xbd9e170c	-0.077192396
111	0xbdd43b25	-0.103628434
112	0xbd3a7a79	-0.045526955
113	0x3cdfc358	0.027314827
114	0xbd98b7c7	-0.07456928
115	0x3d964389	0.073371
116	0x3d0a525d	0.033769954
117	0x3e1931ce	0.14960405
118	0xbd9340ad	-0.0719007
119	0xbd0c66ec	-0.03427784
120	0xbc8167ef	-0.01579663
121	0x3ac10a17	0.0014727738
122	0x3d0b01ad	0.033937145
123	0x3dfa765c	0.122296065
124	0xbd75cccb	-0.06000976
125	0xbd983946	-0.07432799
126	0xbcf39c8b	-0.029737731
127	0xbe0205b8	-0.12697494
128	0xbd8dfe94	-0.069333225
129	0xbd367dc3	-0.04455353
130	0x3dc6809a	0.096924976
131	0x3c7b8598	0.015351675
132	0x3d31d3c9	0.043414865
133	0xbd5cd54c	-0.053914353
134	0x3ca5e6d8	0.020251676
135	0xbd1f6742	-0.038916834
136	0xbdcf71b0	-0.10129106
137	0x3dfceaa5	0.123494424
138	0x3d5cc4f1	0.053898755
139	0x3d60bfc1	0.05487037
140	0x3d11ad91	0.035565916
141	0x3d38f23a	0.04515288
142	0xbd2e1246	-0.042497896
143	0x3cd46534	0.025927164
144	0xbe29d99f	-0.16586922
145	0x3c25b6a3	0.010114345
146	0x3d4a9a0f	0.049463328
147	0x3dde0753	0.10841241
148	0xbd97589f	-0.0738995
149	0x3c2106a4	0.009828243
150	0xbc1bfb1c	-0.009520318
151	0xbd827df6	-0.063716814
152	0xbe0b8324	-0.13624245
153	0x3cae2a42	0.021260384
154	0xbdbbbf21	-0.09167314
155	0xbdfdc5b0	-0.123912215
156	0xbd86740c	-0.06565103
157	0x3d95b3ec	0.07309708
158	0x3d7da96c	0.06192915
159	0xbd44b829	-0.04802719
160	0xbded5b11	-0.11589635
161	0xbd287e54	-0.0411361
162	0x3cd9748c	0.026544832
163	0x3daaf420	0.083473444
164	0xbdcd3c8f	-0.10021316
165	0xbc576c37	-0.013148359
166	0xbdb66cdb	-0.08907481
167	0x3dc50874	0.09620753
168	0xbdcaf335	-0.09909669
169	0x3d6dc87f	0.058052536
170	0xbd444787	-0.047919776
171	0xbb835046	-0.004007372
172	0x3dc38443	0.09546711
173	0x3da87907	0.08226209
174	0xbd7bc51b	-0.06146727
175	0x3e1efbd4	0.15525752
176	0x3da0f6b8	0.07859558
177	0x3cd66bbd	0.02617442
178	0xbc64898e	-0.013948811
179	0x3dd31918	0.10307521
180	0x3d2bf439	0.041980956
181	0xbc948df8	-0.018134102
182	0x3cfa680f	0.030567197
183	0xbc047c14	-0.008086223
184	0xbd3aeab9	-0.045634005
185	0x3c32d300	0.010914564
186	0x3cb72a0a	0.022358913
187	0x3d270b87	0.040782478
188	0x3df34766	0.118788525
189	0x3d5a8491	0.05334908
190	0x3dde223f	0.10846376
191	0x3da4cd1d	0.08046935
192	0x3d849d38	0.064752996
193	0xbd3a1be3	-0.04543675
194	0x3bc1f36d	0.005918911
195	0x3dd0e855	0.10200564
196	0xbddb0d6c	-0.106959194
197	0x3cfb04ab	0.030641874
198	0xbe34bd0d	-0.17650242
199	0xbcbeb9e4	-0.023281999
200	0xbd576446	-0.052585863
201	0x3c2fbaf9	0.01072573
202	0x3ca8cb9d	0.020604903
203	0x3db0611f	0.086122744
204	0xbd1a7119	-0.037705515
205	0x3d96fab6	0.07372038
206	0x3dbae420	0.09125543
207	0x3dc63be2	0.096793905
208	0xbd5f0d7a	-0.05445621
209	0xbd9b19a2	-0.075732484
210	0xbd4ad981	-0.049523834
211	0x3cc4787d	0.023983235
212	0xbc894f81	-0.016761543
213	0x3d97fe76	0.074215814
214	0xbd24b170	-0.04020828
215	0x3d8d3177	0.068942
216	0xbcd5de9c	-0.026107125
217	0x3c72d933	0.014822292
218	0xbd1c5cdf	-0.038174506
219	0x39ff65ad	0.00048713144
220	0x3d3a18d0	0.04543382
221	0xbd4cb797	-0.049979772
222	0x3c34a25f	0.01102504
223	0x3e0aca97	0.13553844
224	0x3debcc6e	0.11513601
225	0xbd772315	-0.06033619
226	0x3d048c05	0.032360096
227	0xbc879fcb	-0.016555687
228	0x3d9980f6	0.074953005
229	0xbd3cd579	-0.04610202
230	0xbdf6280e	-0.120193586
231	0x3addfb68	0.0016935887
232	0xbd725b18	-0.059168905
233	0x3c898f57	0.016791983
234	0xbc255a31	-0.010092304
235	0xbd4e3b93	-0.050349783
236	0x3df9b20c	0.12192163
237	0xbc28398d	-0.010267627
238	0xbd637252	-0.055528946
239	0xbd94ce1c	-0.07265875
240	0xbe0ff3ee	-0.14057896
241	0x3c61bceb	0.013777952
242	0x3dd2f6b2	0.1030096
243	0x3d4036ad	0.046927143
244	0x3dc06da2	0.09395911
245	0x3d8dbff5	0.069213785
246	0xbcd45074	-0.02591727
247	0xbdcbc6e8	-0.09950048
248	0xbd68f781	-0.056876663
249	0x39803674	0.00024454633
250	0xbd606c36	-0.054790698
251	0x3d29ad2c	0.041424915
252	0x3dd24629	0.10267288
253	0x3c3edb8b	0.011649023
254	0xbd2a5621	-0.041586045
255	0x3db9c1bc	0.09070155

3.bias f4 [5]
0	0xbe980f0e	-0.29698986
1	0x3ebf3a3a	0.3734911
2	0xbe25d7a6	-0.16195545
3	0xbf501412	-0.81280625
4	0x3e9b1aec	0.30293977
